…
            "- This IS expected if you are initializing BertModel from the checkpoint of a model trained on another task or with another architecture (e.g. initializing a BertForSequenceClassification model from a BertForPreTraining model).\n",
            "- This IS NOT expected if you are initializing BertModel from the checkpoint of a model that you expect to be exactly identical (initializing a BertForSequenceClassification model from a BertForSequenceClassification model).\n"
          ]
        },
        {
          "output_type": "execute_result",
          "data": {
            "text/plain": [
              "BertModel(\n",
              "  (embeddings): BertEmbeddings(\n",
              "    (word_embeddings): Embedding(119547, 768, padding_idx=0)\n",
              "    (position_embeddings): Embedding(512, 768)\n",
              "    (token_type_embeddings): Embedding(2, 768)\n",
              "    (LayerNorm): LayerNorm((768,), eps=1e-12, elementwise_affine=True)\n",
              "    (dropout): Dropout(p=0.1, inplace=False)\n",
              "  )\n",
              "  (encoder): BertEncoder(\n",
              "    (layer): ModuleList(\n",
              "      (0-11): 12 x BertLayer(\n",
              "        (attention): BertAttention(\n",
              "          (self): BertSelfAttention(\n",
              "            (query): Linear(in_features=768, out_features=768, bias=True)\n",
              "            (key): Linear(in_features=768, out_features=768, bias=True)\n",
              "            (value): Linear(in_features=768, out_features=768, bias=True)\n",
              "            (dropout): Dropout(p=0.1, inplace=False)\n",
              "          )\n",
              "          (output): BertSelfOutput(\n",
              "            (dense): Linear(in_features=768, out_features=768, bias=True)\n",
              "            (LayerNorm): LayerNorm((768,), eps=1e-12, elementwise_affine=True)\n",
              "            (dropout): Dropout(p=0.1, inplace=False)\n",
              "          )\n",
              "        )\n",
              "        (intermediate): BertIntermediate(\n",
              "          (dense): Linear(in_features=768, out_features=3072, bias=True)\n",
              "          (intermediate_act_fn): GELUActivation()\n",
              "        )\n",
              "        (output): BertOutput(\n",
              "          (dense): Linear(in_features=3072, out_features=768, bias=True)\n",
              "          (LayerNorm): LayerNorm((768,), eps=1e-12, elementwise_affine=True)\n",
              "          (dropout): Dropout(p=0.1, inplace=False)\n",
              "        )\n",
              "      )\n",
              "    )\n",
              "  )\n",
              "  (pooler): BertPooler(\n",
              "    (dense): Linear(in_features=768, out_features=768, bias=True)\n",
              "    (activation): Tanh()\n",
              "  )\n",
              ")"
            ]
          },
          "metadata": {},
          "execution_count": 4
        }
      ],
      "source": [
        "#setting up the language model\n",
        "tokenizer = BertTokenizer.from_pretrained('bert-base-multilingual-cased')\n",
        "model = BertModel.from_pretrained(\"bert-base-multilingual-cased\", output_hidden_states = True)\n",
…
